Model: "DermaVision_EfficientNetB4"
__________________________________________________________________________________________________
 Layer (type)                Output Shape                 Param #   Connected to                  
==================================================================================================
 image_input (InputLayer)    [(None, 380, 380, 3)]        0         []                            
                                                                                                  
 rescaling (Rescaling)       (None, 380, 380, 3)          0         ['image_input[0][0]']         
                                                                                                  
 normalization (Normalizati  (None, 380, 380, 3)          7         ['rescaling[0][0]']           
 on)                                                                                              
                                                                                                  
 rescaling_1 (Rescaling)     (None, 380, 380, 3)          0         ['normalization[0][0]']       
                                                                                                  
 stem_conv_pad (ZeroPadding  (None, 381, 381, 3)          0         ['rescaling_1[0][0]']         
 2D)                                                                                              
                                                                                                  
 stem_conv (Conv2D)          (None, 190, 190, 48)         1296      ['stem_conv_pad[0][0]']       
                                                                                                  
 stem_bn (BatchNormalizatio  (None, 190, 190, 48)         192       ['stem_conv[0][0]']           
 n)                                                                                               
                                                                                                  
 stem_activation (Activatio  (None, 190, 190, 48)         0         ['stem_bn[0][0]']             
 n)                                                                                               
                                                                                                  
 block1a_dwconv (DepthwiseC  (None, 190, 190, 48)         432       ['stem_activation[0][0]']     
 onv2D)                                                                                           
                                                                                                  
 block1a_bn (BatchNormaliza  (None, 190, 190, 48)         192       ['block1a_dwconv[0][0]']      
 tion)                                                                                            
                                                                                                  
 block1a_activation (Activa  (None, 190, 190, 48)         0         ['block1a_bn[0][0]']          
 tion)                                                                                            
                                                                                                  
 block1a_se_squeeze (Global  (None, 48)                   0         ['block1a_activation[0][0]']  
 AveragePooling2D)                                                                                
                                                                                                  
 block1a_se_reshape (Reshap  (None, 1, 1, 48)             0         ['block1a_se_squeeze[0][0]']  
 e)                                                                                               
                                                                                                  
 block1a_se_reduce (Conv2D)  (None, 1, 1, 12)             588       ['block1a_se_reshape[0][0]']  
                                                                                                  
 block1a_se_expand (Conv2D)  (None, 1, 1, 48)             624       ['block1a_se_reduce[0][0]']   
                                                                                                  
 block1a_se_excite (Multipl  (None, 190, 190, 48)         0         ['block1a_activation[0][0]',  
 y)                                                                  'block1a_se_expand[0][0]']   
                                                                                                  
 block1a_project_conv (Conv  (None, 190, 190, 24)         1152      ['block1a_se_excite[0][0]']   
 2D)                                                                                              
                                                                                                  
 block1a_project_bn (BatchN  (None, 190, 190, 24)         96        ['block1a_project_conv[0][0]']
 ormalization)                                                                                    
                                                                                                  
 block1b_dwconv (DepthwiseC  (None, 190, 190, 24)         216       ['block1a_project_bn[0][0]']  
 onv2D)                                                                                           
                                                                                                  
 block1b_bn (BatchNormaliza  (None, 190, 190, 24)         96        ['block1b_dwconv[0][0]']      
 tion)                                                                                            
                                                                                                  
 block1b_activation (Activa  (None, 190, 190, 24)         0         ['block1b_bn[0][0]']          
 tion)                                                                                            
                                                                                                  
 block1b_se_squeeze (Global  (None, 24)                   0         ['block1b_activation[0][0]']  
 AveragePooling2D)                                                                                
                                                                                                  
 block1b_se_reshape (Reshap  (None, 1, 1, 24)             0         ['block1b_se_squeeze[0][0]']  
 e)                                                                                               
                                                                                                  
 block1b_se_reduce (Conv2D)  (None, 1, 1, 6)              150       ['block1b_se_reshape[0][0]']  
                                                                                                  
 block1b_se_expand (Conv2D)  (None, 1, 1, 24)             168       ['block1b_se_reduce[0][0]']   
                                                                                                  
 block1b_se_excite (Multipl  (None, 190, 190, 24)         0         ['block1b_activation[0][0]',  
 y)                                                                  'block1b_se_expand[0][0]']   
                                                                                                  
 block1b_project_conv (Conv  (None, 190, 190, 24)         576       ['block1b_se_excite[0][0]']   
 2D)                                                                                              
                                                                                                  
 block1b_project_bn (BatchN  (None, 190, 190, 24)         96        ['block1b_project_conv[0][0]']
 ormalization)                                                                                    
                                                                                                  
 block1b_drop (Dropout)      (None, 190, 190, 24)         0         ['block1b_project_bn[0][0]']  
                                                                                                  
 block1b_add (Add)           (None, 190, 190, 24)         0         ['block1b_drop[0][0]',        
                                                                     'block1a_project_bn[0][0]']  
                                                                                                  
 block2a_expand_conv (Conv2  (None, 190, 190, 144)        3456      ['block1b_add[0][0]']         
 D)                                                                                               
                                                                                                  
 block2a_expand_bn (BatchNo  (None, 190, 190, 144)        576       ['block2a_expand_conv[0][0]'] 
 rmalization)                                                                                     
                                                                                                  
 block2a_expand_activation   (None, 190, 190, 144)        0         ['block2a_expand_bn[0][0]']   
 (Activation)                                                                                     
                                                                                                  
 block2a_dwconv_pad (ZeroPa  (None, 191, 191, 144)        0         ['block2a_expand_activation[0]
 dding2D)                                                           [0]']                         
                                                                                                  
 block2a_dwconv (DepthwiseC  (None, 95, 95, 144)          1296      ['block2a_dwconv_pad[0][0]']  
 onv2D)                                                                                           
                                                                                                  
 block2a_bn (BatchNormaliza  (None, 95, 95, 144)          576       ['block2a_dwconv[0][0]']      
 tion)                                                                                            
                                                                                                  
 block2a_activation (Activa  (None, 95, 95, 144)          0         ['block2a_bn[0][0]']          
 tion)                                                                                            
                                                                                                  
 block2a_se_squeeze (Global  (None, 144)                  0         ['block2a_activation[0][0]']  
 AveragePooling2D)                                                                                
                                                                                                  
 block2a_se_reshape (Reshap  (None, 1, 1, 144)            0         ['block2a_se_squeeze[0][0]']  
 e)                                                                                               
                                                                                                  
 block2a_se_reduce (Conv2D)  (None, 1, 1, 6)              870       ['block2a_se_reshape[0][0]']  
                                                                                                  
 block2a_se_expand (Conv2D)  (None, 1, 1, 144)            1008      ['block2a_se_reduce[0][0]']   
                                                                                                  
 block2a_se_excite (Multipl  (None, 95, 95, 144)          0         ['block2a_activation[0][0]',  
 y)                                                                  'block2a_se_expand[0][0]']   
                                                                                                  
 block2a_project_conv (Conv  (None, 95, 95, 32)           4608      ['block2a_se_excite[0][0]']   
 2D)                                                                                              
                                                                                                  
 block2a_project_bn (BatchN  (None, 95, 95, 32)           128       ['block2a_project_conv[0][0]']
 ormalization)                                                                                    
                                                                                                  
 block2b_expand_conv (Conv2  (None, 95, 95, 192)          6144      ['block2a_project_bn[0][0]']  
 D)                                                                                               
                                                                                                  
 block2b_expand_bn (BatchNo  (None, 95, 95, 192)          768       ['block2b_expand_conv[0][0]'] 
 rmalization)                                                                                     
                                                                                                  
 block2b_expand_activation   (None, 95, 95, 192)          0         ['block2b_expand_bn[0][0]']   
 (Activation)                                                                                     
                                                                                                  
 block2b_dwconv (DepthwiseC  (None, 95, 95, 192)          1728      ['block2b_expand_activation[0]
 onv2D)                                                             [0]']                         
                                                                                                  
 block2b_bn (BatchNormaliza  (None, 95, 95, 192)          768       ['block2b_dwconv[0][0]']      
 tion)                                                                                            
                                                                                                  
 block2b_activation (Activa  (None, 95, 95, 192)          0         ['block2b_bn[0][0]']          
 tion)                                                                                            
                                                                                                  
 block2b_se_squeeze (Global  (None, 192)                  0         ['block2b_activation[0][0]']  
 AveragePooling2D)                                                                                
                                                                                                  
 block2b_se_reshape (Reshap  (None, 1, 1, 192)            0         ['block2b_se_squeeze[0][0]']  
 e)                                                                                               
                                                                                                  
 block2b_se_reduce (Conv2D)  (None, 1, 1, 8)              1544      ['block2b_se_reshape[0][0]']  
                                                                                                  
 block2b_se_expand (Conv2D)  (None, 1, 1, 192)            1728      ['block2b_se_reduce[0][0]']   
                                                                                                  
 block2b_se_excite (Multipl  (None, 95, 95, 192)          0         ['block2b_activation[0][0]',  
 y)                                                                  'block2b_se_expand[0][0]']   
                                                                                                  
 block2b_project_conv (Conv  (None, 95, 95, 32)           6144      ['block2b_se_excite[0][0]']   
 2D)                                                                                              
                                                                                                  
 block2b_project_bn (BatchN  (None, 95, 95, 32)           128       ['block2b_project_conv[0][0]']
 ormalization)                                                                                    
                                                                                                  
 block2b_drop (Dropout)      (None, 95, 95, 32)           0         ['block2b_project_bn[0][0]']  
                                                                                                  
 block2b_add (Add)           (None, 95, 95, 32)           0         ['block2b_drop[0][0]',        
                                                                     'block2a_project_bn[0][0]']  
                                                                                                  
 block2c_expand_conv (Conv2  (None, 95, 95, 192)          6144      ['block2b_add[0][0]']         
 D)                                                                                               
                                                                                                  
 block2c_expand_bn (BatchNo  (None, 95, 95, 192)          768       ['block2c_expand_conv[0][0]'] 
 rmalization)                                                                                     
                                                                                                  
 block2c_expand_activation   (None, 95, 95, 192)          0         ['block2c_expand_bn[0][0]']   
 (Activation)                                                                                     
                                                                                                  
 block2c_dwconv (DepthwiseC  (None, 95, 95, 192)          1728      ['block2c_expand_activation[0]
 onv2D)                                                             [0]']                         
                                                                                                  
 block2c_bn (BatchNormaliza  (None, 95, 95, 192)          768       ['block2c_dwconv[0][0]']      
 tion)                                                                                            
                                                                                                  
 block2c_activation (Activa  (None, 95, 95, 192)          0         ['block2c_bn[0][0]']          
 tion)                                                                                            
                                                                                                  
 block2c_se_squeeze (Global  (None, 192)                  0         ['block2c_activation[0][0]']  
 AveragePooling2D)                                                                                
                                                                                                  
 block2c_se_reshape (Reshap  (None, 1, 1, 192)            0         ['block2c_se_squeeze[0][0]']  
 e)                                                                                               
                                                                                                  
 block2c_se_reduce (Conv2D)  (None, 1, 1, 8)              1544      ['block2c_se_reshape[0][0]']  
                                                                                                  
 block2c_se_expand (Conv2D)  (None, 1, 1, 192)            1728      ['block2c_se_reduce[0][0]']   
                                                                                                  
 block2c_se_excite (Multipl  (None, 95, 95, 192)          0         ['block2c_activation[0][0]',  
 y)                                                                  'block2c_se_expand[0][0]']   
                                                                                                  
 block2c_project_conv (Conv  (None, 95, 95, 32)           6144      ['block2c_se_excite[0][0]']   
 2D)                                                                                              
                                                                                                  
 block2c_project_bn (BatchN  (None, 95, 95, 32)           128       ['block2c_project_conv[0][0]']
 ormalization)                                                                                    
                                                                                                  
 block2c_drop (Dropout)      (None, 95, 95, 32)           0         ['block2c_project_bn[0][0]']  
                                                                                                  
 block2c_add (Add)           (None, 95, 95, 32)           0         ['block2c_drop[0][0]',        
                                                                     'block2b_add[0][0]']         
                                                                                                  
 block2d_expand_conv (Conv2  (None, 95, 95, 192)          6144      ['block2c_add[0][0]']         
 D)                                                                                               
                                                                                                  
 block2d_expand_bn (BatchNo  (None, 95, 95, 192)          768       ['block2d_expand_conv[0][0]'] 
 rmalization)                                                                                     
                                                                                                  
 block2d_expand_activation   (None, 95, 95, 192)          0         ['block2d_expand_bn[0][0]']   
 (Activation)                                                                                     
                                                                                                  
 block2d_dwconv (DepthwiseC  (None, 95, 95, 192)          1728      ['block2d_expand_activation[0]
 onv2D)                                                             [0]']                         
                                                                                                  
 block2d_bn (BatchNormaliza  (None, 95, 95, 192)          768       ['block2d_dwconv[0][0]']      
 tion)                                                                                            
                                                                                                  
 block2d_activation (Activa  (None, 95, 95, 192)          0         ['block2d_bn[0][0]']          
 tion)                                                                                            
                                                                                                  
 block2d_se_squeeze (Global  (None, 192)                  0         ['block2d_activation[0][0]']  
 AveragePooling2D)                                                                                
                                                                                                  
 block2d_se_reshape (Reshap  (None, 1, 1, 192)            0         ['block2d_se_squeeze[0][0]']  
 e)                                                                                               
                                                                                                  
 block2d_se_reduce (Conv2D)  (None, 1, 1, 8)              1544      ['block2d_se_reshape[0][0]']  
                                                                                                  
 block2d_se_expand (Conv2D)  (None, 1, 1, 192)            1728      ['block2d_se_reduce[0][0]']   
                                                                                                  
 block2d_se_excite (Multipl  (None, 95, 95, 192)          0         ['block2d_activation[0][0]',  
 y)                                                                  'block2d_se_expand[0][0]']   
                                                                                                  
 block2d_project_conv (Conv  (None, 95, 95, 32)           6144      ['block2d_se_excite[0][0]']   
 2D)                                                                                              
                                                                                                  
 block2d_project_bn (BatchN  (None, 95, 95, 32)           128       ['block2d_project_conv[0][0]']
 ormalization)                                                                                    
                                                                                                  
 block2d_drop (Dropout)      (None, 95, 95, 32)           0         ['block2d_project_bn[0][0]']  
                                                                                                  
 block2d_add (Add)           (None, 95, 95, 32)           0         ['block2d_drop[0][0]',        
                                                                     'block2c_add[0][0]']         
                                                                                                  
 block3a_expand_conv (Conv2  (None, 95, 95, 192)          6144      ['block2d_add[0][0]']         
 D)                                                                                               
                                                                                                  
 block3a_expand_bn (BatchNo  (None, 95, 95, 192)          768       ['block3a_expand_conv[0][0]'] 
 rmalization)                                                                                     
                                                                                                  
 block3a_expand_activation   (None, 95, 95, 192)          0         ['block3a_expand_bn[0][0]']   
 (Activation)                                                                                     
                                                                                                  
 block3a_dwconv_pad (ZeroPa  (None, 99, 99, 192)          0         ['block3a_expand_activation[0]
 dding2D)                                                           [0]']                         
                                                                                                  
 block3a_dwconv (DepthwiseC  (None, 48, 48, 192)          4800      ['block3a_dwconv_pad[0][0]']  
 onv2D)                                                                                           
                                                                                                  
 block3a_bn (BatchNormaliza  (None, 48, 48, 192)          768       ['block3a_dwconv[0][0]']      
 tion)                                                                                            
                                                                                                  
 block3a_activation (Activa  (None, 48, 48, 192)          0         ['block3a_bn[0][0]']          
 tion)                                                                                            
                                                                                                  
 block3a_se_squeeze (Global  (None, 192)                  0         ['block3a_activation[0][0]']  
 AveragePooling2D)                                                                                
                                                                                                  
 block3a_se_reshape (Reshap  (None, 1, 1, 192)            0         ['block3a_se_squeeze[0][0]']  
 e)                                                                                               
                                                                                                  
 block3a_se_reduce (Conv2D)  (None, 1, 1, 8)              1544      ['block3a_se_reshape[0][0]']  
                                                                                                  
 block3a_se_expand (Conv2D)  (None, 1, 1, 192)            1728      ['block3a_se_reduce[0][0]']   
                                                                                                  
 block3a_se_excite (Multipl  (None, 48, 48, 192)          0         ['block3a_activation[0][0]',  
 y)                                                                  'block3a_se_expand[0][0]']   
                                                                                                  
 block3a_project_conv (Conv  (None, 48, 48, 56)           10752     ['block3a_se_excite[0][0]']   
 2D)                                                                                              
                                                                                                  
 block3a_project_bn (BatchN  (None, 48, 48, 56)           224       ['block3a_project_conv[0][0]']
 ormalization)                                                                                    
                                                                                                  
 block3b_expand_conv (Conv2  (None, 48, 48, 336)          18816     ['block3a_project_bn[0][0]']  
 D)                                                                                               
                                                                                                  
 block3b_expand_bn (BatchNo  (None, 48, 48, 336)          1344      ['block3b_expand_conv[0][0]'] 
 rmalization)                                                                                     
                                                                                                  
 block3b_expand_activation   (None, 48, 48, 336)          0         ['block3b_expand_bn[0][0]']   
 (Activation)                                                                                     
                                                                                                  
 block3b_dwconv (DepthwiseC  (None, 48, 48, 336)          8400      ['block3b_expand_activation[0]
 onv2D)                                                             [0]']                         
                                                                                                  
 block3b_bn (BatchNormaliza  (None, 48, 48, 336)          1344      ['block3b_dwconv[0][0]']      
 tion)                                                                                            
                                                                                                  
 block3b_activation (Activa  (None, 48, 48, 336)          0         ['block3b_bn[0][0]']          
 tion)                                                                                            
                                                                                                  
 block3b_se_squeeze (Global  (None, 336)                  0         ['block3b_activation[0][0]']  
 AveragePooling2D)                                                                                
                                                                                                  
 block3b_se_reshape (Reshap  (None, 1, 1, 336)            0         ['block3b_se_squeeze[0][0]']  
 e)                                                                                               
                                                                                                  
 block3b_se_reduce (Conv2D)  (None, 1, 1, 14)             4718      ['block3b_se_reshape[0][0]']  
                                                                                                  
 block3b_se_expand (Conv2D)  (None, 1, 1, 336)            5040      ['block3b_se_reduce[0][0]']   
                                                                                                  
 block3b_se_excite (Multipl  (None, 48, 48, 336)          0         ['block3b_activation[0][0]',  
 y)                                                                  'block3b_se_expand[0][0]']   
                                                                                                  
 block3b_project_conv (Conv  (None, 48, 48, 56)           18816     ['block3b_se_excite[0][0]']   
 2D)                                                                                              
                                                                                                  
 block3b_project_bn (BatchN  (None, 48, 48, 56)           224       ['block3b_project_conv[0][0]']
 ormalization)                                                                                    
                                                                                                  
 block3b_drop (Dropout)      (None, 48, 48, 56)           0         ['block3b_project_bn[0][0]']  
                                                                                                  
 block3b_add (Add)           (None, 48, 48, 56)           0         ['block3b_drop[0][0]',        
                                                                     'block3a_project_bn[0][0]']  
                                                                                                  
 block3c_expand_conv (Conv2  (None, 48, 48, 336)          18816     ['block3b_add[0][0]']         
 D)                                                                                               
                                                                                                  
 block3c_expand_bn (BatchNo  (None, 48, 48, 336)          1344      ['block3c_expand_conv[0][0]'] 
 rmalization)                                                                                     
                                                                                                  
 block3c_expand_activation   (None, 48, 48, 336)          0         ['block3c_expand_bn[0][0]']   
 (Activation)                                                                                     
                                                                                                  
 block3c_dwconv (DepthwiseC  (None, 48, 48, 336)          8400      ['block3c_expand_activation[0]
 onv2D)                                                             [0]']                         
                                                                                                  
 block3c_bn (BatchNormaliza  (None, 48, 48, 336)          1344      ['block3c_dwconv[0][0]']      
 tion)                                                                                            
                                                                                                  
 block3c_activation (Activa  (None, 48, 48, 336)          0         ['block3c_bn[0][0]']          
 tion)                                                                                            
                                                                                                  
 block3c_se_squeeze (Global  (None, 336)                  0         ['block3c_activation[0][0]']  
 AveragePooling2D)                                                                                
                                                                                                  
 block3c_se_reshape (Reshap  (None, 1, 1, 336)            0         ['block3c_se_squeeze[0][0]']  
 e)                                                                                               
                                                                                                  
 block3c_se_reduce (Conv2D)  (None, 1, 1, 14)             4718      ['block3c_se_reshape[0][0]']  
                                                                                                  
 block3c_se_expand (Conv2D)  (None, 1, 1, 336)            5040      ['block3c_se_reduce[0][0]']   
                                                                                                  
 block3c_se_excite (Multipl  (None, 48, 48, 336)          0         ['block3c_activation[0][0]',  
 y)                                                                  'block3c_se_expand[0][0]']   
                                                                                                  
 block3c_project_conv (Conv  (None, 48, 48, 56)           18816     ['block3c_se_excite[0][0]']   
 2D)                                                                                              
                                                                                                  
 block3c_project_bn (BatchN  (None, 48, 48, 56)           224       ['block3c_project_conv[0][0]']
 ormalization)                                                                                    
                                                                                                  
 block3c_drop (Dropout)      (None, 48, 48, 56)           0         ['block3c_project_bn[0][0]']  
                                                                                                  
 block3c_add (Add)           (None, 48, 48, 56)           0         ['block3c_drop[0][0]',        
                                                                     'block3b_add[0][0]']         
                                                                                                  
 block3d_expand_conv (Conv2  (None, 48, 48, 336)          18816     ['block3c_add[0][0]']         
 D)                                                                                               
                                                                                                  
 block3d_expand_bn (BatchNo  (None, 48, 48, 336)          1344      ['block3d_expand_conv[0][0]'] 
 rmalization)                                                                                     
                                                                                                  
 block3d_expand_activation   (None, 48, 48, 336)          0         ['block3d_expand_bn[0][0]']   
 (Activation)                                                                                     
                                                                                                  
 block3d_dwconv (DepthwiseC  (None, 48, 48, 336)          8400      ['block3d_expand_activation[0]
 onv2D)                                                             [0]']                         
                                                                                                  
 block3d_bn (BatchNormaliza  (None, 48, 48, 336)          1344      ['block3d_dwconv[0][0]']      
 tion)                                                                                            
                                                                                                  
 block3d_activation (Activa  (None, 48, 48, 336)          0         ['block3d_bn[0][0]']          
 tion)                                                                                            
                                                                                                  
 block3d_se_squeeze (Global  (None, 336)                  0         ['block3d_activation[0][0]']  
 AveragePooling2D)                                                                                
                                                                                                  
 block3d_se_reshape (Reshap  (None, 1, 1, 336)            0         ['block3d_se_squeeze[0][0]']  
 e)                                                                                               
                                                                                                  
 block3d_se_reduce (Conv2D)  (None, 1, 1, 14)             4718      ['block3d_se_reshape[0][0]']  
                                                                                                  
 block3d_se_expand (Conv2D)  (None, 1, 1, 336)            5040      ['block3d_se_reduce[0][0]']   
                                                                                                  
 block3d_se_excite (Multipl  (None, 48, 48, 336)          0         ['block3d_activation[0][0]',  
 y)                                                                  'block3d_se_expand[0][0]']   
                                                                                                  
 block3d_project_conv (Conv  (None, 48, 48, 56)           18816     ['block3d_se_excite[0][0]']   
 2D)                                                                                              
                                                                                                  
 block3d_project_bn (BatchN  (None, 48, 48, 56)           224       ['block3d_project_conv[0][0]']
 ormalization)                                                                                    
                                                                                                  
 block3d_drop (Dropout)      (None, 48, 48, 56)           0         ['block3d_project_bn[0][0]']  
                                                                                                  
 block3d_add (Add)           (None, 48, 48, 56)           0         ['block3d_drop[0][0]',        
                                                                     'block3c_add[0][0]']         
                                                                                                  
 block4a_expand_conv (Conv2  (None, 48, 48, 336)          18816     ['block3d_add[0][0]']         
 D)                                                                                               
                                                                                                  
 block4a_expand_bn (BatchNo  (None, 48, 48, 336)          1344      ['block4a_expand_conv[0][0]'] 
 rmalization)                                                                                     
                                                                                                  
 block4a_expand_activation   (None, 48, 48, 336)          0         ['block4a_expand_bn[0][0]']   
 (Activation)                                                                                     
                                                                                                  
 block4a_dwconv_pad (ZeroPa  (None, 49, 49, 336)          0         ['block4a_expand_activation[0]
 dding2D)                                                           [0]']                         
                                                                                                  
 block4a_dwconv (DepthwiseC  (None, 24, 24, 336)          3024      ['block4a_dwconv_pad[0][0]']  
 onv2D)                                                                                           
                                                                                                  
 block4a_bn (BatchNormaliza  (None, 24, 24, 336)          1344      ['block4a_dwconv[0][0]']      
 tion)                                                                                            
                                                                                                  
 block4a_activation (Activa  (None, 24, 24, 336)          0         ['block4a_bn[0][0]']          
 tion)                                                                                            
                                                                                                  
 block4a_se_squeeze (Global  (None, 336)                  0         ['block4a_activation[0][0]']  
 AveragePooling2D)                                                                                
                                                                                                  
 block4a_se_reshape (Reshap  (None, 1, 1, 336)            0         ['block4a_se_squeeze[0][0]']  
 e)                                                                                               
                                                                                                  
 block4a_se_reduce (Conv2D)  (None, 1, 1, 14)             4718      ['block4a_se_reshape[0][0]']  
                                                                                                  
 block4a_se_expand (Conv2D)  (None, 1, 1, 336)            5040      ['block4a_se_reduce[0][0]']   
                                                                                                  
 block4a_se_excite (Multipl  (None, 24, 24, 336)          0         ['block4a_activation[0][0]',  
 y)                                                                  'block4a_se_expand[0][0]']   
                                                                                                  
 block4a_project_conv (Conv  (None, 24, 24, 112)          37632     ['block4a_se_excite[0][0]']   
 2D)                                                                                              
                                                                                                  
 block4a_project_bn (BatchN  (None, 24, 24, 112)          448       ['block4a_project_conv[0][0]']
 ormalization)                                                                                    
                                                                                                  
 block4b_expand_conv (Conv2  (None, 24, 24, 672)          75264     ['block4a_project_bn[0][0]']  
 D)                                                                                               
                                                                                                  
 block4b_expand_bn (BatchNo  (None, 24, 24, 672)          2688      ['block4b_expand_conv[0][0]'] 
 rmalization)                                                                                     
                                                                                                  
 block4b_expand_activation   (None, 24, 24, 672)          0         ['block4b_expand_bn[0][0]']   
 (Activation)                                                                                     
                                                                                                  
 block4b_dwconv (DepthwiseC  (None, 24, 24, 672)          6048      ['block4b_expand_activation[0]
 onv2D)                                                             [0]']                         
                                                                                                  
 block4b_bn (BatchNormaliza  (None, 24, 24, 672)          2688      ['block4b_dwconv[0][0]']      
 tion)                                                                                            
                                                                                                  
 block4b_activation (Activa  (None, 24, 24, 672)          0         ['block4b_bn[0][0]']          
 tion)                                                                                            
                                                                                                  
 block4b_se_squeeze (Global  (None, 672)                  0         ['block4b_activation[0][0]']  
 AveragePooling2D)                                                                                
                                                                                                  
 block4b_se_reshape (Reshap  (None, 1, 1, 672)            0         ['block4b_se_squeeze[0][0]']  
 e)                                                                                               
                                                                                                  
 block4b_se_reduce (Conv2D)  (None, 1, 1, 28)             18844     ['block4b_se_reshape[0][0]']  
                                                                                                  
 block4b_se_expand (Conv2D)  (None, 1, 1, 672)            19488     ['block4b_se_reduce[0][0]']   
                                                                                                  
 block4b_se_excite (Multipl  (None, 24, 24, 672)          0         ['block4b_activation[0][0]',  
 y)                                                                  'block4b_se_expand[0][0]']   
                                                                                                  
 block4b_project_conv (Conv  (None, 24, 24, 112)          75264     ['block4b_se_excite[0][0]']   
 2D)                                                                                              
                                                                                                  
 block4b_project_bn (BatchN  (None, 24, 24, 112)          448       ['block4b_project_conv[0][0]']
 ormalization)                                                                                    
                                                                                                  
 block4b_drop (Dropout)      (None, 24, 24, 112)          0         ['block4b_project_bn[0][0]']  
                                                                                                  
 block4b_add (Add)           (None, 24, 24, 112)          0         ['block4b_drop[0][0]',        
                                                                     'block4a_project_bn[0][0]']  
                                                                                                  
 block4c_expand_conv (Conv2  (None, 24, 24, 672)          75264     ['block4b_add[0][0]']         
 D)                                                                                               
                                                                                                  
 block4c_expand_bn (BatchNo  (None, 24, 24, 672)          2688      ['block4c_expand_conv[0][0]'] 
 rmalization)                                                                                     
                                                                                                  
 block4c_expand_activation   (None, 24, 24, 672)          0         ['block4c_expand_bn[0][0]']   
 (Activation)                                                                                     
                                                                                                  
 block4c_dwconv (DepthwiseC  (None, 24, 24, 672)          6048      ['block4c_expand_activation[0]
 onv2D)                                                             [0]']                         
                                                                                                  
 block4c_bn (BatchNormaliza  (None, 24, 24, 672)          2688      ['block4c_dwconv[0][0]']      
 tion)                                                                                            
                                                                                                  
 block4c_activation (Activa  (None, 24, 24, 672)          0         ['block4c_bn[0][0]']          
 tion)                                                                                            
                                                                                                  
 block4c_se_squeeze (Global  (None, 672)                  0         ['block4c_activation[0][0]']  
 AveragePooling2D)                                                                                
                                                                                                  
 block4c_se_reshape (Reshap  (None, 1, 1, 672)            0         ['block4c_se_squeeze[0][0]']  
 e)                                                                                               
                                                                                                  
 block4c_se_reduce (Conv2D)  (None, 1, 1, 28)             18844     ['block4c_se_reshape[0][0]']  
                                                                                                  
 block4c_se_expand (Conv2D)  (None, 1, 1, 672)            19488     ['block4c_se_reduce[0][0]']   
                                                                                                  
 block4c_se_excite (Multipl  (None, 24, 24, 672)          0         ['block4c_activation[0][0]',  
 y)                                                                  'block4c_se_expand[0][0]']   
                                                                                                  
 block4c_project_conv (Conv  (None, 24, 24, 112)          75264     ['block4c_se_excite[0][0]']   
 2D)                                                                                              
                                                                                                  
 block4c_project_bn (BatchN  (None, 24, 24, 112)          448       ['block4c_project_conv[0][0]']
 ormalization)                                                                                    
                                                                                                  
 block4c_drop (Dropout)      (None, 24, 24, 112)          0         ['block4c_project_bn[0][0]']  
                                                                                                  
 block4c_add (Add)           (None, 24, 24, 112)          0         ['block4c_drop[0][0]',        
                                                                     'block4b_add[0][0]']         
                                                                                                  
 block4d_expand_conv (Conv2  (None, 24, 24, 672)          75264     ['block4c_add[0][0]']         
 D)                                                                                               
                                                                                                  
 block4d_expand_bn (BatchNo  (None, 24, 24, 672)          2688      ['block4d_expand_conv[0][0]'] 
 rmalization)                                                                                     
                                                                                                  
 block4d_expand_activation   (None, 24, 24, 672)          0         ['block4d_expand_bn[0][0]']   
 (Activation)                                                                                     
                                                                                                  
 block4d_dwconv (DepthwiseC  (None, 24, 24, 672)          6048      ['block4d_expand_activation[0]
 onv2D)                                                             [0]']                         
                                                                                                  
 block4d_bn (BatchNormaliza  (None, 24, 24, 672)          2688      ['block4d_dwconv[0][0]']      
 tion)                                                                                            
                                                                                                  
 block4d_activation (Activa  (None, 24, 24, 672)          0         ['block4d_bn[0][0]']          
 tion)                                                                                            
                                                                                                  
 block4d_se_squeeze (Global  (None, 672)                  0         ['block4d_activation[0][0]']  
 AveragePooling2D)                                                                                
                                                                                                  
 block4d_se_reshape (Reshap  (None, 1, 1, 672)            0         ['block4d_se_squeeze[0][0]']  
 e)                                                                                               
                                                                                                  
 block4d_se_reduce (Conv2D)  (None, 1, 1, 28)             18844     ['block4d_se_reshape[0][0]']  
                                                                                                  
 block4d_se_expand (Conv2D)  (None, 1, 1, 672)            19488     ['block4d_se_reduce[0][0]']   
                                                                                                  
 block4d_se_excite (Multipl  (None, 24, 24, 672)          0         ['block4d_activation[0][0]',  
 y)                                                                  'block4d_se_expand[0][0]']   
                                                                                                  
 block4d_project_conv (Conv  (None, 24, 24, 112)          75264     ['block4d_se_excite[0][0]']   
 2D)                                                                                              
                                                                                                  
 block4d_project_bn (BatchN  (None, 24, 24, 112)          448       ['block4d_project_conv[0][0]']
 ormalization)                                                                                    
                                                                                                  
 block4d_drop (Dropout)      (None, 24, 24, 112)          0         ['block4d_project_bn[0][0]']  
                                                                                                  
 block4d_add (Add)           (None, 24, 24, 112)          0         ['block4d_drop[0][0]',        
                                                                     'block4c_add[0][0]']         
                                                                                                  
 block4e_expand_conv (Conv2  (None, 24, 24, 672)          75264     ['block4d_add[0][0]']         
 D)                                                                                               
                                                                                                  
 block4e_expand_bn (BatchNo  (None, 24, 24, 672)          2688      ['block4e_expand_conv[0][0]'] 
 rmalization)                                                                                     
                                                                                                  
 block4e_expand_activation   (None, 24, 24, 672)          0         ['block4e_expand_bn[0][0]']   
 (Activation)                                                                                     
                                                                                                  
 block4e_dwconv (DepthwiseC  (None, 24, 24, 672)          6048      ['block4e_expand_activation[0]
 onv2D)                                                             [0]']                         
                                                                                                  
 block4e_bn (BatchNormaliza  (None, 24, 24, 672)          2688      ['block4e_dwconv[0][0]']      
 tion)                                                                                            
                                                                                                  
 block4e_activation (Activa  (None, 24, 24, 672)          0         ['block4e_bn[0][0]']          
 tion)                                                                                            
                                                                                                  
 block4e_se_squeeze (Global  (None, 672)                  0         ['block4e_activation[0][0]']  
 AveragePooling2D)                                                                                
                                                                                                  
 block4e_se_reshape (Reshap  (None, 1, 1, 672)            0         ['block4e_se_squeeze[0][0]']  
 e)                                                                                               
                                                                                                  
 block4e_se_reduce (Conv2D)  (None, 1, 1, 28)             18844     ['block4e_se_reshape[0][0]']  
                                                                                                  
 block4e_se_expand (Conv2D)  (None, 1, 1, 672)            19488     ['block4e_se_reduce[0][0]']   
                                                                                                  
 block4e_se_excite (Multipl  (None, 24, 24, 672)          0         ['block4e_activation[0][0]',  
 y)                                                                  'block4e_se_expand[0][0]']   
                                                                                                  
 block4e_project_conv (Conv  (None, 24, 24, 112)          75264     ['block4e_se_excite[0][0]']   
 2D)                                                                                              
                                                                                                  
 block4e_project_bn (BatchN  (None, 24, 24, 112)          448       ['block4e_project_conv[0][0]']
 ormalization)                                                                                    
                                                                                                  
 block4e_drop (Dropout)      (None, 24, 24, 112)          0         ['block4e_project_bn[0][0]']  
                                                                                                  
 block4e_add (Add)           (None, 24, 24, 112)          0         ['block4e_drop[0][0]',        
                                                                     'block4d_add[0][0]']         
                                                                                                  
 block4f_expand_conv (Conv2  (None, 24, 24, 672)          75264     ['block4e_add[0][0]']         
 D)                                                                                               
                                                                                                  
 block4f_expand_bn (BatchNo  (None, 24, 24, 672)          2688      ['block4f_expand_conv[0][0]'] 
 rmalization)                                                                                     
                                                                                                  
 block4f_expand_activation   (None, 24, 24, 672)          0         ['block4f_expand_bn[0][0]']   
 (Activation)                                                                                     
                                                                                                  
 block4f_dwconv (DepthwiseC  (None, 24, 24, 672)          6048      ['block4f_expand_activation[0]
 onv2D)                                                             [0]']                         
                                                                                                  
 block4f_bn (BatchNormaliza  (None, 24, 24, 672)          2688      ['block4f_dwconv[0][0]']      
 tion)                                                                                            
                                                                                                  
 block4f_activation (Activa  (None, 24, 24, 672)          0         ['block4f_bn[0][0]']          
 tion)                                                                                            
                                                                                                  
 block4f_se_squeeze (Global  (None, 672)                  0         ['block4f_activation[0][0]']  
 AveragePooling2D)                                                                                
                                                                                                  
 block4f_se_reshape (Reshap  (None, 1, 1, 672)            0         ['block4f_se_squeeze[0][0]']  
 e)                                                                                               
                                                                                                  
 block4f_se_reduce (Conv2D)  (None, 1, 1, 28)             18844     ['block4f_se_reshape[0][0]']  
                                                                                                  
 block4f_se_expand (Conv2D)  (None, 1, 1, 672)            19488     ['block4f_se_reduce[0][0]']   
                                                                                                  
 block4f_se_excite (Multipl  (None, 24, 24, 672)          0         ['block4f_activation[0][0]',  
 y)                                                                  'block4f_se_expand[0][0]']   
                                                                                                  
 block4f_project_conv (Conv  (None, 24, 24, 112)          75264     ['block4f_se_excite[0][0]']   
 2D)                                                                                              
                                                                                                  
 block4f_project_bn (BatchN  (None, 24, 24, 112)          448       ['block4f_project_conv[0][0]']
 ormalization)                                                                                    
                                                                                                  
 block4f_drop (Dropout)      (None, 24, 24, 112)          0         ['block4f_project_bn[0][0]']  
                                                                                                  
 block4f_add (Add)           (None, 24, 24, 112)          0         ['block4f_drop[0][0]',        
                                                                     'block4e_add[0][0]']         
                                                                                                  
 block5a_expand_conv (Conv2  (None, 24, 24, 672)          75264     ['block4f_add[0][0]']         
 D)                                                                                               
                                                                                                  
 block5a_expand_bn (BatchNo  (None, 24, 24, 672)          2688      ['block5a_expand_conv[0][0]'] 
 rmalization)                                                                                     
                                                                                                  
 block5a_expand_activation   (None, 24, 24, 672)          0         ['block5a_expand_bn[0][0]']   
 (Activation)                                                                                     
                                                                                                  
 block5a_dwconv (DepthwiseC  (None, 24, 24, 672)          16800     ['block5a_expand_activation[0]
 onv2D)                                                             [0]']                         
                                                                                                  
 block5a_bn (BatchNormaliza  (None, 24, 24, 672)          2688      ['block5a_dwconv[0][0]']      
 tion)                                                                                            
                                                                                                  
 block5a_activation (Activa  (None, 24, 24, 672)          0         ['block5a_bn[0][0]']          
 tion)                                                                                            
                                                                                                  
 block5a_se_squeeze (Global  (None, 672)                  0         ['block5a_activation[0][0]']  
 AveragePooling2D)                                                                                
                                                                                                  
 block5a_se_reshape (Reshap  (None, 1, 1, 672)            0         ['block5a_se_squeeze[0][0]']  
 e)                                                                                               
                                                                                                  
 block5a_se_reduce (Conv2D)  (None, 1, 1, 28)             18844     ['block5a_se_reshape[0][0]']  
                                                                                                  
 block5a_se_expand (Conv2D)  (None, 1, 1, 672)            19488     ['block5a_se_reduce[0][0]']   
                                                                                                  
 block5a_se_excite (Multipl  (None, 24, 24, 672)          0         ['block5a_activation[0][0]',  
 y)                                                                  'block5a_se_expand[0][0]']   
                                                                                                  
 block5a_project_conv (Conv  (None, 24, 24, 160)          107520    ['block5a_se_excite[0][0]']   
 2D)                                                                                              
                                                                                                  
 block5a_project_bn (BatchN  (None, 24, 24, 160)          640       ['block5a_project_conv[0][0]']
 ormalization)                                                                                    
                                                                                                  
 block5b_expand_conv (Conv2  (None, 24, 24, 960)          153600    ['block5a_project_bn[0][0]']  
 D)                                                                                               
                                                                                                  
 block5b_expand_bn (BatchNo  (None, 24, 24, 960)          3840      ['block5b_expand_conv[0][0]'] 
 rmalization)                                                                                     
                                                                                                  
 block5b_expand_activation   (None, 24, 24, 960)          0         ['block5b_expand_bn[0][0]']   
 (Activation)                                                                                     
                                                                                                  
 block5b_dwconv (DepthwiseC  (None, 24, 24, 960)          24000     ['block5b_expand_activation[0]
 onv2D)                                                             [0]']                         
                                                                                                  
 block5b_bn (BatchNormaliza  (None, 24, 24, 960)          3840      ['block5b_dwconv[0][0]']      
 tion)                                                                                            
                                                                                                  
 block5b_activation (Activa  (None, 24, 24, 960)          0         ['block5b_bn[0][0]']          
 tion)                                                                                            
                                                                                                  
 block5b_se_squeeze (Global  (None, 960)                  0         ['block5b_activation[0][0]']  
 AveragePooling2D)                                                                                
                                                                                                  
 block5b_se_reshape (Reshap  (None, 1, 1, 960)            0         ['block5b_se_squeeze[0][0]']  
 e)                                                                                               
                                                                                                  
 block5b_se_reduce (Conv2D)  (None, 1, 1, 40)             38440     ['block5b_se_reshape[0][0]']  
                                                                                                  
 block5b_se_expand (Conv2D)  (None, 1, 1, 960)            39360     ['block5b_se_reduce[0][0]']   
                                                                                                  
 block5b_se_excite (Multipl  (None, 24, 24, 960)          0         ['block5b_activation[0][0]',  
 y)                                                                  'block5b_se_expand[0][0]']   
                                                                                                  
 block5b_project_conv (Conv  (None, 24, 24, 160)          153600    ['block5b_se_excite[0][0]']   
 2D)                                                                                              
                                                                                                  
 block5b_project_bn (BatchN  (None, 24, 24, 160)          640       ['block5b_project_conv[0][0]']
 ormalization)                                                                                    
                                                                                                  
 block5b_drop (Dropout)      (None, 24, 24, 160)          0         ['block5b_project_bn[0][0]']  
                                                                                                  
 block5b_add (Add)           (None, 24, 24, 160)          0         ['block5b_drop[0][0]',        
                                                                     'block5a_project_bn[0][0]']  
                                                                                                  
 block5c_expand_conv (Conv2  (None, 24, 24, 960)          153600    ['block5b_add[0][0]']         
 D)                                                                                               
                                                                                                  
 block5c_expand_bn (BatchNo  (None, 24, 24, 960)          3840      ['block5c_expand_conv[0][0]'] 
 rmalization)                                                                                     
                                                                                                  
 block5c_expand_activation   (None, 24, 24, 960)          0         ['block5c_expand_bn[0][0]']   
 (Activation)                                                                                     
                                                                                                  
 block5c_dwconv (DepthwiseC  (None, 24, 24, 960)          24000     ['block5c_expand_activation[0]
 onv2D)                                                             [0]']                         
                                                                                                  
 block5c_bn (BatchNormaliza  (None, 24, 24, 960)          3840      ['block5c_dwconv[0][0]']      
 tion)                                                                                            
                                                                                                  
 block5c_activation (Activa  (None, 24, 24, 960)          0         ['block5c_bn[0][0]']          
 tion)                                                                                            
                                                                                                  
 block5c_se_squeeze (Global  (None, 960)                  0         ['block5c_activation[0][0]']  
 AveragePooling2D)                                                                                
                                                                                                  
 block5c_se_reshape (Reshap  (None, 1, 1, 960)            0         ['block5c_se_squeeze[0][0]']  
 e)                                                                                               
                                                                                                  
 block5c_se_reduce (Conv2D)  (None, 1, 1, 40)             38440     ['block5c_se_reshape[0][0]']  
                                                                                                  
 block5c_se_expand (Conv2D)  (None, 1, 1, 960)            39360     ['block5c_se_reduce[0][0]']   
                                                                                                  
 block5c_se_excite (Multipl  (None, 24, 24, 960)          0         ['block5c_activation[0][0]',  
 y)                                                                  'block5c_se_expand[0][0]']   
                                                                                                  
 block5c_project_conv (Conv  (None, 24, 24, 160)          153600    ['block5c_se_excite[0][0]']   
 2D)                                                                                              
                                                                                                  
 block5c_project_bn (BatchN  (None, 24, 24, 160)          640       ['block5c_project_conv[0][0]']
 ormalization)                                                                                    
                                                                                                  
 block5c_drop (Dropout)      (None, 24, 24, 160)          0         ['block5c_project_bn[0][0]']  
                                                                                                  
 block5c_add (Add)           (None, 24, 24, 160)          0         ['block5c_drop[0][0]',        
                                                                     'block5b_add[0][0]']         
                                                                                                  
 block5d_expand_conv (Conv2  (None, 24, 24, 960)          153600    ['block5c_add[0][0]']         
 D)                                                                                               
                                                                                                  
 block5d_expand_bn (BatchNo  (None, 24, 24, 960)          3840      ['block5d_expand_conv[0][0]'] 
 rmalization)                                                                                     
                                                                                                  
 block5d_expand_activation   (None, 24, 24, 960)          0         ['block5d_expand_bn[0][0]']   
 (Activation)                                                                                     
                                                                                                  
 block5d_dwconv (DepthwiseC  (None, 24, 24, 960)          24000     ['block5d_expand_activation[0]
 onv2D)                                                             [0]']                         
                                                                                                  
 block5d_bn (BatchNormaliza  (None, 24, 24, 960)          3840      ['block5d_dwconv[0][0]']      
 tion)                                                                                            
                                                                                                  
 block5d_activation (Activa  (None, 24, 24, 960)          0         ['block5d_bn[0][0]']          
 tion)                                                                                            
                                                                                                  
 block5d_se_squeeze (Global  (None, 960)                  0         ['block5d_activation[0][0]']  
 AveragePooling2D)                                                                                
                                                                                                  
 block5d_se_reshape (Reshap  (None, 1, 1, 960)            0         ['block5d_se_squeeze[0][0]']  
 e)                                                                                               
                                                                                                  
 block5d_se_reduce (Conv2D)  (None, 1, 1, 40)             38440     ['block5d_se_reshape[0][0]']  
                                                                                                  
 block5d_se_expand (Conv2D)  (None, 1, 1, 960)            39360     ['block5d_se_reduce[0][0]']   
                                                                                                  
 block5d_se_excite (Multipl  (None, 24, 24, 960)          0         ['block5d_activation[0][0]',  
 y)                                                                  'block5d_se_expand[0][0]']   
                                                                                                  
 block5d_project_conv (Conv  (None, 24, 24, 160)          153600    ['block5d_se_excite[0][0]']   
 2D)                                                                                              
                                                                                                  
 block5d_project_bn (BatchN  (None, 24, 24, 160)          640       ['block5d_project_conv[0][0]']
 ormalization)                                                                                    
                                                                                                  
 block5d_drop (Dropout)      (None, 24, 24, 160)          0         ['block5d_project_bn[0][0]']  
                                                                                                  
 block5d_add (Add)           (None, 24, 24, 160)          0         ['block5d_drop[0][0]',        
                                                                     'block5c_add[0][0]']         
                                                                                                  
 block5e_expand_conv (Conv2  (None, 24, 24, 960)          153600    ['block5d_add[0][0]']         
 D)                                                                                               
                                                                                                  
 block5e_expand_bn (BatchNo  (None, 24, 24, 960)          3840      ['block5e_expand_conv[0][0]'] 
 rmalization)                                                                                     
                                                                                                  
 block5e_expand_activation   (None, 24, 24, 960)          0         ['block5e_expand_bn[0][0]']   
 (Activation)                                                                                     
                                                                                                  
 block5e_dwconv (DepthwiseC  (None, 24, 24, 960)          24000     ['block5e_expand_activation[0]
 onv2D)                                                             [0]']                         
                                                                                                  
 block5e_bn (BatchNormaliza  (None, 24, 24, 960)          3840      ['block5e_dwconv[0][0]']      
 tion)                                                                                            
                                                                                                  
 block5e_activation (Activa  (None, 24, 24, 960)          0         ['block5e_bn[0][0]']          
 tion)                                                                                            
                                                                                                  
 block5e_se_squeeze (Global  (None, 960)                  0         ['block5e_activation[0][0]']  
 AveragePooling2D)                                                                                
                                                                                                  
 block5e_se_reshape (Reshap  (None, 1, 1, 960)            0         ['block5e_se_squeeze[0][0]']  
 e)                                                                                               
                                                                                                  
 block5e_se_reduce (Conv2D)  (None, 1, 1, 40)             38440     ['block5e_se_reshape[0][0]']  
                                                                                                  
 block5e_se_expand (Conv2D)  (None, 1, 1, 960)            39360     ['block5e_se_reduce[0][0]']   
                                                                                                  
 block5e_se_excite (Multipl  (None, 24, 24, 960)          0         ['block5e_activation[0][0]',  
 y)                                                                  'block5e_se_expand[0][0]']   
                                                                                                  
 block5e_project_conv (Conv  (None, 24, 24, 160)          153600    ['block5e_se_excite[0][0]']   
 2D)                                                                                              
                                                                                                  
 block5e_project_bn (BatchN  (None, 24, 24, 160)          640       ['block5e_project_conv[0][0]']
 ormalization)                                                                                    
                                                                                                  
 block5e_drop (Dropout)      (None, 24, 24, 160)          0         ['block5e_project_bn[0][0]']  
                                                                                                  
 block5e_add (Add)           (None, 24, 24, 160)          0         ['block5e_drop[0][0]',        
                                                                     'block5d_add[0][0]']         
                                                                                                  
 block5f_expand_conv (Conv2  (None, 24, 24, 960)          153600    ['block5e_add[0][0]']         
 D)                                                                                               
                                                                                                  
 block5f_expand_bn (BatchNo  (None, 24, 24, 960)          3840      ['block5f_expand_conv[0][0]'] 
 rmalization)                                                                                     
                                                                                                  
 block5f_expand_activation   (None, 24, 24, 960)          0         ['block5f_expand_bn[0][0]']   
 (Activation)                                                                                     
                                                                                                  
 block5f_dwconv (DepthwiseC  (None, 24, 24, 960)          24000     ['block5f_expand_activation[0]
 onv2D)                                                             [0]']                         
                                                                                                  
 block5f_bn (BatchNormaliza  (None, 24, 24, 960)          3840      ['block5f_dwconv[0][0]']      
 tion)                                                                                            
                                                                                                  
 block5f_activation (Activa  (None, 24, 24, 960)          0         ['block5f_bn[0][0]']          
 tion)                                                                                            
                                                                                                  
 block5f_se_squeeze (Global  (None, 960)                  0         ['block5f_activation[0][0]']  
 AveragePooling2D)                                                                                
                                                                                                  
 block5f_se_reshape (Reshap  (None, 1, 1, 960)            0         ['block5f_se_squeeze[0][0]']  
 e)                                                                                               
                                                                                                  
 block5f_se_reduce (Conv2D)  (None, 1, 1, 40)             38440     ['block5f_se_reshape[0][0]']  
                                                                                                  
 block5f_se_expand (Conv2D)  (None, 1, 1, 960)            39360     ['block5f_se_reduce[0][0]']   
                                                                                                  
 block5f_se_excite (Multipl  (None, 24, 24, 960)          0         ['block5f_activation[0][0]',  
 y)                                                                  'block5f_se_expand[0][0]']   
                                                                                                  
 block5f_project_conv (Conv  (None, 24, 24, 160)          153600    ['block5f_se_excite[0][0]']   
 2D)                                                                                              
                                                                                                  
 block5f_project_bn (BatchN  (None, 24, 24, 160)          640       ['block5f_project_conv[0][0]']
 ormalization)                                                                                    
                                                                                                  
 block5f_drop (Dropout)      (None, 24, 24, 160)          0         ['block5f_project_bn[0][0]']  
                                                                                                  
 block5f_add (Add)           (None, 24, 24, 160)          0         ['block5f_drop[0][0]',        
                                                                     'block5e_add[0][0]']         
                                                                                                  
 block6a_expand_conv (Conv2  (None, 24, 24, 960)          153600    ['block5f_add[0][0]']         
 D)                                                                                               
                                                                                                  
 block6a_expand_bn (BatchNo  (None, 24, 24, 960)          3840      ['block6a_expand_conv[0][0]'] 
 rmalization)                                                                                     
                                                                                                  
 block6a_expand_activation   (None, 24, 24, 960)          0         ['block6a_expand_bn[0][0]']   
 (Activation)                                                                                     
                                                                                                  
 block6a_dwconv_pad (ZeroPa  (None, 27, 27, 960)          0         ['block6a_expand_activation[0]
 dding2D)                                                           [0]']                         
                                                                                                  
 block6a_dwconv (DepthwiseC  (None, 12, 12, 960)          24000     ['block6a_dwconv_pad[0][0]']  
 onv2D)                                                                                           
                                                                                                  
 block6a_bn (BatchNormaliza  (None, 12, 12, 960)          3840      ['block6a_dwconv[0][0]']      
 tion)                                                                                            
                                                                                                  
 block6a_activation (Activa  (None, 12, 12, 960)          0         ['block6a_bn[0][0]']          
 tion)                                                                                            
                                                                                                  
 block6a_se_squeeze (Global  (None, 960)                  0         ['block6a_activation[0][0]']  
 AveragePooling2D)                                                                                
                                                                                                  
 block6a_se_reshape (Reshap  (None, 1, 1, 960)            0         ['block6a_se_squeeze[0][0]']  
 e)                                                                                               
                                                                                                  
 block6a_se_reduce (Conv2D)  (None, 1, 1, 40)             38440     ['block6a_se_reshape[0][0]']  
                                                                                                  
 block6a_se_expand (Conv2D)  (None, 1, 1, 960)            39360     ['block6a_se_reduce[0][0]']   
                                                                                                  
 block6a_se_excite (Multipl  (None, 12, 12, 960)          0         ['block6a_activation[0][0]',  
 y)                                                                  'block6a_se_expand[0][0]']   
                                                                                                  
 block6a_project_conv (Conv  (None, 12, 12, 272)          261120    ['block6a_se_excite[0][0]']   
 2D)                                                                                              
                                                                                                  
 block6a_project_bn (BatchN  (None, 12, 12, 272)          1088      ['block6a_project_conv[0][0]']
 ormalization)                                                                                    
                                                                                                  
 block6b_expand_conv (Conv2  (None, 12, 12, 1632)         443904    ['block6a_project_bn[0][0]']  
 D)                                                                                               
                                                                                                  
 block6b_expand_bn (BatchNo  (None, 12, 12, 1632)         6528      ['block6b_expand_conv[0][0]'] 
 rmalization)                                                                                     
                                                                                                  
 block6b_expand_activation   (None, 12, 12, 1632)         0         ['block6b_expand_bn[0][0]']   
 (Activation)                                                                                     
                                                                                                  
 block6b_dwconv (DepthwiseC  (None, 12, 12, 1632)         40800     ['block6b_expand_activation[0]
 onv2D)                                                             [0]']                         
                                                                                                  
 block6b_bn (BatchNormaliza  (None, 12, 12, 1632)         6528      ['block6b_dwconv[0][0]']      
 tion)                                                                                            
                                                                                                  
 block6b_activation (Activa  (None, 12, 12, 1632)         0         ['block6b_bn[0][0]']          
 tion)                                                                                            
                                                                                                  
 block6b_se_squeeze (Global  (None, 1632)                 0         ['block6b_activation[0][0]']  
 AveragePooling2D)                                                                                
                                                                                                  
 block6b_se_reshape (Reshap  (None, 1, 1, 1632)           0         ['block6b_se_squeeze[0][0]']  
 e)                                                                                               
                                                                                                  
 block6b_se_reduce (Conv2D)  (None, 1, 1, 68)             111044    ['block6b_se_reshape[0][0]']  
                                                                                                  
 block6b_se_expand (Conv2D)  (None, 1, 1, 1632)           112608    ['block6b_se_reduce[0][0]']   
                                                                                                  
 block6b_se_excite (Multipl  (None, 12, 12, 1632)         0         ['block6b_activation[0][0]',  
 y)                                                                  'block6b_se_expand[0][0]']   
                                                                                                  
 block6b_project_conv (Conv  (None, 12, 12, 272)          443904    ['block6b_se_excite[0][0]']   
 2D)                                                                                              
                                                                                                  
 block6b_project_bn (BatchN  (None, 12, 12, 272)          1088      ['block6b_project_conv[0][0]']
 ormalization)                                                                                    
                                                                                                  
 block6b_drop (Dropout)      (None, 12, 12, 272)          0         ['block6b_project_bn[0][0]']  
                                                                                                  
 block6b_add (Add)           (None, 12, 12, 272)          0         ['block6b_drop[0][0]',        
                                                                     'block6a_project_bn[0][0]']  
                                                                                                  
 block6c_expand_conv (Conv2  (None, 12, 12, 1632)         443904    ['block6b_add[0][0]']         
 D)                                                                                               
                                                                                                  
 block6c_expand_bn (BatchNo  (None, 12, 12, 1632)         6528      ['block6c_expand_conv[0][0]'] 
 rmalization)                                                                                     
                                                                                                  
 block6c_expand_activation   (None, 12, 12, 1632)         0         ['block6c_expand_bn[0][0]']   
 (Activation)                                                                                     
                                                                                                  
 block6c_dwconv (DepthwiseC  (None, 12, 12, 1632)         40800     ['block6c_expand_activation[0]
 onv2D)                                                             [0]']                         
                                                                                                  
 block6c_bn (BatchNormaliza  (None, 12, 12, 1632)         6528      ['block6c_dwconv[0][0]']      
 tion)                                                                                            
                                                                                                  
 block6c_activation (Activa  (None, 12, 12, 1632)         0         ['block6c_bn[0][0]']          
 tion)                                                                                            
                                                                                                  
 block6c_se_squeeze (Global  (None, 1632)                 0         ['block6c_activation[0][0]']  
 AveragePooling2D)                                                                                
                                                                                                  
 block6c_se_reshape (Reshap  (None, 1, 1, 1632)           0         ['block6c_se_squeeze[0][0]']  
 e)                                                                                               
                                                                                                  
 block6c_se_reduce (Conv2D)  (None, 1, 1, 68)             111044    ['block6c_se_reshape[0][0]']  
                                                                                                  
 block6c_se_expand (Conv2D)  (None, 1, 1, 1632)           112608    ['block6c_se_reduce[0][0]']   
                                                                                                  
 block6c_se_excite (Multipl  (None, 12, 12, 1632)         0         ['block6c_activation[0][0]',  
 y)                                                                  'block6c_se_expand[0][0]']   
                                                                                                  
 block6c_project_conv (Conv  (None, 12, 12, 272)          443904    ['block6c_se_excite[0][0]']   
 2D)                                                                                              
                                                                                                  
 block6c_project_bn (BatchN  (None, 12, 12, 272)          1088      ['block6c_project_conv[0][0]']
 ormalization)                                                                                    
                                                                                                  
 block6c_drop (Dropout)      (None, 12, 12, 272)          0         ['block6c_project_bn[0][0]']  
                                                                                                  
 block6c_add (Add)           (None, 12, 12, 272)          0         ['block6c_drop[0][0]',        
                                                                     'block6b_add[0][0]']         
                                                                                                  
 block6d_expand_conv (Conv2  (None, 12, 12, 1632)         443904    ['block6c_add[0][0]']         
 D)                                                                                               
                                                                                                  
 block6d_expand_bn (BatchNo  (None, 12, 12, 1632)         6528      ['block6d_expand_conv[0][0]'] 
 rmalization)                                                                                     
                                                                                                  
 block6d_expand_activation   (None, 12, 12, 1632)         0         ['block6d_expand_bn[0][0]']   
 (Activation)                                                                                     
                                                                                                  
 block6d_dwconv (DepthwiseC  (None, 12, 12, 1632)         40800     ['block6d_expand_activation[0]
 onv2D)                                                             [0]']                         
                                                                                                  
 block6d_bn (BatchNormaliza  (None, 12, 12, 1632)         6528      ['block6d_dwconv[0][0]']      
 tion)                                                                                            
                                                                                                  
 block6d_activation (Activa  (None, 12, 12, 1632)         0         ['block6d_bn[0][0]']          
 tion)                                                                                            
                                                                                                  
 block6d_se_squeeze (Global  (None, 1632)                 0         ['block6d_activation[0][0]']  
 AveragePooling2D)                                                                                
                                                                                                  
 block6d_se_reshape (Reshap  (None, 1, 1, 1632)           0         ['block6d_se_squeeze[0][0]']  
 e)                                                                                               
                                                                                                  
 block6d_se_reduce (Conv2D)  (None, 1, 1, 68)             111044    ['block6d_se_reshape[0][0]']  
                                                                                                  
 block6d_se_expand (Conv2D)  (None, 1, 1, 1632)           112608    ['block6d_se_reduce[0][0]']   
                                                                                                  
 block6d_se_excite (Multipl  (None, 12, 12, 1632)         0         ['block6d_activation[0][0]',  
 y)                                                                  'block6d_se_expand[0][0]']   
                                                                                                  
 block6d_project_conv (Conv  (None, 12, 12, 272)          443904    ['block6d_se_excite[0][0]']   
 2D)                                                                                              
                                                                                                  
 block6d_project_bn (BatchN  (None, 12, 12, 272)          1088      ['block6d_project_conv[0][0]']
 ormalization)                                                                                    
                                                                                                  
 block6d_drop (Dropout)      (None, 12, 12, 272)          0         ['block6d_project_bn[0][0]']  
                                                                                                  
 block6d_add (Add)           (None, 12, 12, 272)          0         ['block6d_drop[0][0]',        
                                                                     'block6c_add[0][0]']         
                                                                                                  
 block6e_expand_conv (Conv2  (None, 12, 12, 1632)         443904    ['block6d_add[0][0]']         
 D)                                                                                               
                                                                                                  
 block6e_expand_bn (BatchNo  (None, 12, 12, 1632)         6528      ['block6e_expand_conv[0][0]'] 
 rmalization)                                                                                     
                                                                                                  
 block6e_expand_activation   (None, 12, 12, 1632)         0         ['block6e_expand_bn[0][0]']   
 (Activation)                                                                                     
                                                                                                  
 block6e_dwconv (DepthwiseC  (None, 12, 12, 1632)         40800     ['block6e_expand_activation[0]
 onv2D)                                                             [0]']                         
                                                                                                  
 block6e_bn (BatchNormaliza  (None, 12, 12, 1632)         6528      ['block6e_dwconv[0][0]']      
 tion)                                                                                            
                                                                                                  
 block6e_activation (Activa  (None, 12, 12, 1632)         0         ['block6e_bn[0][0]']          
 tion)                                                                                            
                                                                                                  
 block6e_se_squeeze (Global  (None, 1632)                 0         ['block6e_activation[0][0]']  
 AveragePooling2D)                                                                                
                                                                                                  
 block6e_se_reshape (Reshap  (None, 1, 1, 1632)           0         ['block6e_se_squeeze[0][0]']  
 e)                                                                                               
                                                                                                  
 block6e_se_reduce (Conv2D)  (None, 1, 1, 68)             111044    ['block6e_se_reshape[0][0]']  
                                                                                                  
 block6e_se_expand (Conv2D)  (None, 1, 1, 1632)           112608    ['block6e_se_reduce[0][0]']   
                                                                                                  
 block6e_se_excite (Multipl  (None, 12, 12, 1632)         0         ['block6e_activation[0][0]',  
 y)                                                                  'block6e_se_expand[0][0]']   
                                                                                                  
 block6e_project_conv (Conv  (None, 12, 12, 272)          443904    ['block6e_se_excite[0][0]']   
 2D)                                                                                              
                                                                                                  
 block6e_project_bn (BatchN  (None, 12, 12, 272)          1088      ['block6e_project_conv[0][0]']
 ormalization)                                                                                    
                                                                                                  
 block6e_drop (Dropout)      (None, 12, 12, 272)          0         ['block6e_project_bn[0][0]']  
                                                                                                  
 block6e_add (Add)           (None, 12, 12, 272)          0         ['block6e_drop[0][0]',        
                                                                     'block6d_add[0][0]']         
                                                                                                  
 block6f_expand_conv (Conv2  (None, 12, 12, 1632)         443904    ['block6e_add[0][0]']         
 D)                                                                                               
                                                                                                  
 block6f_expand_bn (BatchNo  (None, 12, 12, 1632)         6528      ['block6f_expand_conv[0][0]'] 
 rmalization)                                                                                     
                                                                                                  
 block6f_expand_activation   (None, 12, 12, 1632)         0         ['block6f_expand_bn[0][0]']   
 (Activation)                                                                                     
                                                                                                  
 block6f_dwconv (DepthwiseC  (None, 12, 12, 1632)         40800     ['block6f_expand_activation[0]
 onv2D)                                                             [0]']                         
                                                                                                  
 block6f_bn (BatchNormaliza  (None, 12, 12, 1632)         6528      ['block6f_dwconv[0][0]']      
 tion)                                                                                            
                                                                                                  
 block6f_activation (Activa  (None, 12, 12, 1632)         0         ['block6f_bn[0][0]']          
 tion)                                                                                            
                                                                                                  
 block6f_se_squeeze (Global  (None, 1632)                 0         ['block6f_activation[0][0]']  
 AveragePooling2D)                                                                                
                                                                                                  
 block6f_se_reshape (Reshap  (None, 1, 1, 1632)           0         ['block6f_se_squeeze[0][0]']  
 e)                                                                                               
                                                                                                  
 block6f_se_reduce (Conv2D)  (None, 1, 1, 68)             111044    ['block6f_se_reshape[0][0]']  
                                                                                                  
 block6f_se_expand (Conv2D)  (None, 1, 1, 1632)           112608    ['block6f_se_reduce[0][0]']   
                                                                                                  
 block6f_se_excite (Multipl  (None, 12, 12, 1632)         0         ['block6f_activation[0][0]',  
 y)                                                                  'block6f_se_expand[0][0]']   
                                                                                                  
 block6f_project_conv (Conv  (None, 12, 12, 272)          443904    ['block6f_se_excite[0][0]']   
 2D)                                                                                              
                                                                                                  
 block6f_project_bn (BatchN  (None, 12, 12, 272)          1088      ['block6f_project_conv[0][0]']
 ormalization)                                                                                    
                                                                                                  
 block6f_drop (Dropout)      (None, 12, 12, 272)          0         ['block6f_project_bn[0][0]']  
                                                                                                  
 block6f_add (Add)           (None, 12, 12, 272)          0         ['block6f_drop[0][0]',        
                                                                     'block6e_add[0][0]']         
                                                                                                  
 block6g_expand_conv (Conv2  (None, 12, 12, 1632)         443904    ['block6f_add[0][0]']         
 D)                                                                                               
                                                                                                  
 block6g_expand_bn (BatchNo  (None, 12, 12, 1632)         6528      ['block6g_expand_conv[0][0]'] 
 rmalization)                                                                                     
                                                                                                  
 block6g_expand_activation   (None, 12, 12, 1632)         0         ['block6g_expand_bn[0][0]']   
 (Activation)                                                                                     
                                                                                                  
 block6g_dwconv (DepthwiseC  (None, 12, 12, 1632)         40800     ['block6g_expand_activation[0]
 onv2D)                                                             [0]']                         
                                                                                                  
 block6g_bn (BatchNormaliza  (None, 12, 12, 1632)         6528      ['block6g_dwconv[0][0]']      
 tion)                                                                                            
                                                                                                  
 block6g_activation (Activa  (None, 12, 12, 1632)         0         ['block6g_bn[0][0]']          
 tion)                                                                                            
                                                                                                  
 block6g_se_squeeze (Global  (None, 1632)                 0         ['block6g_activation[0][0]']  
 AveragePooling2D)                                                                                
                                                                                                  
 block6g_se_reshape (Reshap  (None, 1, 1, 1632)           0         ['block6g_se_squeeze[0][0]']  
 e)                                                                                               
                                                                                                  
 block6g_se_reduce (Conv2D)  (None, 1, 1, 68)             111044    ['block6g_se_reshape[0][0]']  
                                                                                                  
 block6g_se_expand (Conv2D)  (None, 1, 1, 1632)           112608    ['block6g_se_reduce[0][0]']   
                                                                                                  
 block6g_se_excite (Multipl  (None, 12, 12, 1632)         0         ['block6g_activation[0][0]',  
 y)                                                                  'block6g_se_expand[0][0]']   
                                                                                                  
 block6g_project_conv (Conv  (None, 12, 12, 272)          443904    ['block6g_se_excite[0][0]']   
 2D)                                                                                              
                                                                                                  
 block6g_project_bn (BatchN  (None, 12, 12, 272)          1088      ['block6g_project_conv[0][0]']
 ormalization)                                                                                    
                                                                                                  
 block6g_drop (Dropout)      (None, 12, 12, 272)          0         ['block6g_project_bn[0][0]']  
                                                                                                  
 block6g_add (Add)           (None, 12, 12, 272)          0         ['block6g_drop[0][0]',        
                                                                     'block6f_add[0][0]']         
                                                                                                  
 block6h_expand_conv (Conv2  (None, 12, 12, 1632)         443904    ['block6g_add[0][0]']         
 D)                                                                                               
                                                                                                  
 block6h_expand_bn (BatchNo  (None, 12, 12, 1632)         6528      ['block6h_expand_conv[0][0]'] 
 rmalization)                                                                                     
                                                                                                  
 block6h_expand_activation   (None, 12, 12, 1632)         0         ['block6h_expand_bn[0][0]']   
 (Activation)                                                                                     
                                                                                                  
 block6h_dwconv (DepthwiseC  (None, 12, 12, 1632)         40800     ['block6h_expand_activation[0]
 onv2D)                                                             [0]']                         
                                                                                                  
 block6h_bn (BatchNormaliza  (None, 12, 12, 1632)         6528      ['block6h_dwconv[0][0]']      
 tion)                                                                                            
                                                                                                  
 block6h_activation (Activa  (None, 12, 12, 1632)         0         ['block6h_bn[0][0]']          
 tion)                                                                                            
                                                                                                  
 block6h_se_squeeze (Global  (None, 1632)                 0         ['block6h_activation[0][0]']  
 AveragePooling2D)                                                                                
                                                                                                  
 block6h_se_reshape (Reshap  (None, 1, 1, 1632)           0         ['block6h_se_squeeze[0][0]']  
 e)                                                                                               
                                                                                                  
 block6h_se_reduce (Conv2D)  (None, 1, 1, 68)             111044    ['block6h_se_reshape[0][0]']  
                                                                                                  
 block6h_se_expand (Conv2D)  (None, 1, 1, 1632)           112608    ['block6h_se_reduce[0][0]']   
                                                                                                  
 block6h_se_excite (Multipl  (None, 12, 12, 1632)         0         ['block6h_activation[0][0]',  
 y)                                                                  'block6h_se_expand[0][0]']   
                                                                                                  
 block6h_project_conv (Conv  (None, 12, 12, 272)          443904    ['block6h_se_excite[0][0]']   
 2D)                                                                                              
                                                                                                  
 block6h_project_bn (BatchN  (None, 12, 12, 272)          1088      ['block6h_project_conv[0][0]']
 ormalization)                                                                                    
                                                                                                  
 block6h_drop (Dropout)      (None, 12, 12, 272)          0         ['block6h_project_bn[0][0]']  
                                                                                                  
 block6h_add (Add)           (None, 12, 12, 272)          0         ['block6h_drop[0][0]',        
                                                                     'block6g_add[0][0]']         
                                                                                                  
 block7a_expand_conv (Conv2  (None, 12, 12, 1632)         443904    ['block6h_add[0][0]']         
 D)                                                                                               
                                                                                                  
 block7a_expand_bn (BatchNo  (None, 12, 12, 1632)         6528      ['block7a_expand_conv[0][0]'] 
 rmalization)                                                                                     
                                                                                                  
 block7a_expand_activation   (None, 12, 12, 1632)         0         ['block7a_expand_bn[0][0]']   
 (Activation)                                                                                     
                                                                                                  
 block7a_dwconv (DepthwiseC  (None, 12, 12, 1632)         14688     ['block7a_expand_activation[0]
 onv2D)                                                             [0]']                         
                                                                                                  
 block7a_bn (BatchNormaliza  (None, 12, 12, 1632)         6528      ['block7a_dwconv[0][0]']      
 tion)                                                                                            
                                                                                                  
 block7a_activation (Activa  (None, 12, 12, 1632)         0         ['block7a_bn[0][0]']          
 tion)                                                                                            
                                                                                                  
 block7a_se_squeeze (Global  (None, 1632)                 0         ['block7a_activation[0][0]']  
 AveragePooling2D)                                                                                
                                                                                                  
 block7a_se_reshape (Reshap  (None, 1, 1, 1632)           0         ['block7a_se_squeeze[0][0]']  
 e)                                                                                               
                                                                                                  
 block7a_se_reduce (Conv2D)  (None, 1, 1, 68)             111044    ['block7a_se_reshape[0][0]']  
                                                                                                  
 block7a_se_expand (Conv2D)  (None, 1, 1, 1632)           112608    ['block7a_se_reduce[0][0]']   
                                                                                                  
 block7a_se_excite (Multipl  (None, 12, 12, 1632)         0         ['block7a_activation[0][0]',  
 y)                                                                  'block7a_se_expand[0][0]']   
                                                                                                  
 block7a_project_conv (Conv  (None, 12, 12, 448)          731136    ['block7a_se_excite[0][0]']   
 2D)                                                                                              
                                                                                                  
 block7a_project_bn (BatchN  (None, 12, 12, 448)          1792      ['block7a_project_conv[0][0]']
 ormalization)                                                                                    
                                                                                                  
 block7b_expand_conv (Conv2  (None, 12, 12, 2688)         1204224   ['block7a_project_bn[0][0]']  
 D)                                                                                               
                                                                                                  
 block7b_expand_bn (BatchNo  (None, 12, 12, 2688)         10752     ['block7b_expand_conv[0][0]'] 
 rmalization)                                                                                     
                                                                                                  
 block7b_expand_activation   (None, 12, 12, 2688)         0         ['block7b_expand_bn[0][0]']   
 (Activation)                                                                                     
                                                                                                  
 block7b_dwconv (DepthwiseC  (None, 12, 12, 2688)         24192     ['block7b_expand_activation[0]
 onv2D)                                                             [0]']                         
                                                                                                  
 block7b_bn (BatchNormaliza  (None, 12, 12, 2688)         10752     ['block7b_dwconv[0][0]']      
 tion)                                                                                            
                                                                                                  
 block7b_activation (Activa  (None, 12, 12, 2688)         0         ['block7b_bn[0][0]']          
 tion)                                                                                            
                                                                                                  
 block7b_se_squeeze (Global  (None, 2688)                 0         ['block7b_activation[0][0]']  
 AveragePooling2D)                                                                                
                                                                                                  
 block7b_se_reshape (Reshap  (None, 1, 1, 2688)           0         ['block7b_se_squeeze[0][0]']  
 e)                                                                                               
                                                                                                  
 block7b_se_reduce (Conv2D)  (None, 1, 1, 112)            301168    ['block7b_se_reshape[0][0]']  
                                                                                                  
 block7b_se_expand (Conv2D)  (None, 1, 1, 2688)           303744    ['block7b_se_reduce[0][0]']   
                                                                                                  
 block7b_se_excite (Multipl  (None, 12, 12, 2688)         0         ['block7b_activation[0][0]',  
 y)                                                                  'block7b_se_expand[0][0]']   
                                                                                                  
 block7b_project_conv (Conv  (None, 12, 12, 448)          1204224   ['block7b_se_excite[0][0]']   
 2D)                                                                                              
                                                                                                  
 block7b_project_bn (BatchN  (None, 12, 12, 448)          1792      ['block7b_project_conv[0][0]']
 ormalization)                                                                                    
                                                                                                  
 block7b_drop (Dropout)      (None, 12, 12, 448)          0         ['block7b_project_bn[0][0]']  
                                                                                                  
 block7b_add (Add)           (None, 12, 12, 448)          0         ['block7b_drop[0][0]',        
                                                                     'block7a_project_bn[0][0]']  
                                                                                                  
 top_conv (Conv2D)           (None, 12, 12, 1792)         802816    ['block7b_add[0][0]']         
                                                                                                  
 top_bn (BatchNormalization  (None, 12, 12, 1792)         7168      ['top_conv[0][0]']            
 )                                                                                                
                                                                                                  
 top_activation (Activation  (None, 12, 12, 1792)         0         ['top_bn[0][0]']              
 )                                                                                                
                                                                                                  
 global_avg_pool (GlobalAve  (None, 1792)                 0         ['top_activation[0][0]']      
 ragePooling2D)                                                                                   
                                                                                                  
 dropout_regularization (Dr  (None, 1792)                 0         ['global_avg_pool[0][0]']     
 opout)                                                                                           
                                                                                                  
 disease_classifier (Dense)  (None, 18)                   32274     ['dropout_regularization[0][0]
                                                                    ']                            
                                                                                                  
==================================================================================================
Total params: 17706097 (67.54 MB)
Trainable params: 32274 (126.07 KB)
…
